AE.model (torch, 187386 bytes, 54 tensors)

weight f4 [64, 128]
0	0xb93e4723	-0.00018146313
1	0x3a0c9d53	0.00053640193
2	0xb84cd467	-4.8835205e-05
3	0x39691ed8	0.00022232102
4	0xb8d05f86	-9.9360055e-05
5	0x39bf6ef0	0.00036513014
6	0xbaaa9e30	-0.0013017114
7	0x3a1c5496	0.0005963532
8	0xba2274af	-0.0006197197
9	0xba820e51	-0.000992248
10	0x3a08805b	0.0005207115
11	0x3a3516df	0.000690801
12	0x39d3e885	0.00040418297
13	0xb89a292a	-7.35096e-05
14	0xb94df19b	-0.00019640329
15	0xb95c5340	-0.00021011848
16	0xb9b11230	-0.00033773622
17	0xb8d9ef5c	-0.000103919505
18	0xb959f20d	-0.00020784904
19	0x39b4491f	0.00034386755
20	0xb909a554	-0.00013126928
21	0xb9875b42	-0.000258172
22	0xba38eca1	-0.00070543034
23	0x3a081324	0.00051908405
24	0x3a23d021	0.000624897
25	0x3a2fb1bf	0.00067022064
26	0x38166fba	3.586684e-05
27	0x39e6907d	0.0004397667
28	0x39b1a707	0.00033884516
29	0xb91582c8	-0.00014258467
30	0x38bb147b	8.92067e-05
31	0xb98a0a84	-0.00026329246
32	0xb9ae0ca0	-0.00033197273
33	0xb88bbf4e	-6.66367e-05
34	0x38d7d0d6	0.000102908976
35	0xb84a9264	-4.829689e-05
36	0x398ad2fd	0.0002647861
37	0xb982a9de	-0.00024922093
38	0x39b0322a	0.0003360671
39	0x3a2975f3	0.0006464414
40	0x399d507f	0.00030005348
41	0x3926b5c5	0.00015898708
42	0x383cf11a	4.5047236e-05
43	0x39a93b18	0.0003227822
44	0xba90da0f	-0.0011051315
45	0x3978dae2	0.00023732663
46	0xba0a429e	-0.0005274209
47	0x39457b80	0.00018833391
48	0xb9ba4cb2	-0.00035533827
49	0xba500520	-0.0007935334
50	0xb85a4ed3	-5.204866e-05
51	0x39231949	0.00015554311
52	0xb99a4b55	-0.00029429296
53	0x3a877281	0.0010333807
54	0xb7952b67	-1.7782395e-05
55	0x39ea53ce	0.00044694397
56	0x39b2bd47	0.00034091828
57	0xba8648e2	-0.001024511
58	0xb98cb814	-0.0002684003
59	0x39c4ab8c	0.00037511846
60	0x395f716d	0.00021309192
61	0xb87d6805	-6.0416776e-05
62	0x38bd136a	9.0158384e-05
63	0x399868ea	0.00029069866
64	0xb9083606	-0.00012990096
65	0xb9e8efc2	-0.00044429122
66	0x39c5adbd	0.00037704213
67	0x39dc8a51	0.00042064724
68	0x39abb42b	0.00032749897
69	0x390d44e3	0.0001347247
70	0x39ad27c8	0.0003302677
71	0xba04b119	-0.000506179
72	0x39ad1907	0.00033015778
73	0xb87c89a0	-6.0209655e-05
74	0xb9a68127	-0.00031758213
75	0x393c79b0	0.0001797441
76	0x3a149e8c	0.0005669377
77	0x3842c548	4.6436937e-05
78	0x39109654	0.00013788912
79	0xba7846c8	-0.00094709964
80	0x3a85d3a1	0.0010210165
81	0xb9d06057	-0.0003974463
82	0x3990d2ff	0.00027623025
83	0xbaa75da8	-0.0012769001
84	0xb9fe18ee	-0.0004846523
85	0x3a092aef	0.0005232533
86	0xb9128106	-0.0001397171
87	0xba109df7	-0.00055167027
88	0xb99a0638	-0.00029377802
89	0x3a5ed854	0.00085008633
90	0xba1015b0	-0.0005496396
91	0x3a22a46b	0.000620431
92	0x3a823e7c	0.0009936835
93	0xba2a4a8a	-0.00064960925
94	0xb95bd345	-0.00020964172
95	0xb989b058	-0.00026262063
96	0xb9f1b9c0	-0.00046105497
97	0x3a9b1f47	0.0011834883
98	0x3a1b60b5	0.0005927191
99	0xb93b42a2	-0.00017858532
100	0xba53d4c7	-0.00080807175
101	0x3a0fe03b	0.000548843
102	0xb9957240	-0.00028504618
103	0xba95d302	-0.0011430683
104	0x39ee82f7	0.00045492474
105	0xba9e9c6c	-0.0012101061
106	0xb896924a	-7.179806e-05
107	0x39a3d60c	0.0003124926
108	0x35952484	1.1111993e-06
109	0xb95928ff	-0.00020710005
110	0x391cfb3b	0.0001497091
111	0x3a030741	0.00049983343
112	0x39068f8d	0.00012832713
113	0x39395e72	0.00017678158
114	0x3aa7fe36	0.001281685
115	0xba3d1122	-0.0007212331
116	0xba325b4c	-0.00068037654
117	0xb94549ed	-0.00018814924
118	0xb9ace1b9	-0.00032974573
119	0xb9d205b5	-0.00040058573
120	0x36af3df3	5.2226183e-06
121	0x3ad919d1	0.001656348
122	0x3a422b2a	0.00074069446
123	0xbab0e70a	-0.0013496589
124	0x3a1e7bf4	0.0006045692
125	0xba239f86	-0.00062417274
126	0xba0c0c9d	-0.00053424557
127	0xba476dcf	-0.00076076103
128	0xbb441853	-0.0029921725
129	0x3ba3f965	0.0050040954
130	0x3b3ada63	0.0028511516
131	0xba8c0094	-0.0010681325
132	0xbb7d3dcc	-0.003864157
133	0xbad6c4d7	-0.0016385567
134	0xbaf8de89	-0.0018987219
135	0x3bf650b0	0.007516943
136	0xbb1e1311	-0.0024120251
137	0xbb21814f	-0.0024643724
138	0x36b9fc8c	5.54283e-06
139	0xb9111005	-0.00013834245
140	0x3a130967	0.0005609006
141	0xbad00fe6	-0.0015873879
142	0xbae80746	-0.0017702363
143	0xbb47697a	-0.003042786
144	0x3af408b8	0.0018618321
145	0x3bcd24be	0.0062604835
146	0xba2a07cd	-0.0006486148
147	0xbadbc69f	-0.0016767568
148	0x3b194397	0.0023386234
149	0xbaf5ff09	-0.0018768023
150	0x3b0a6a53	0.0021120503
151	0x38818b47	6.177142e-05
152	0xb902fc81	-0.00012491831
153	0x378a5422	1.649006e-05
154	0x3a5e1fe2	0.0008473379
155	0xbbb6edd3	-0.00558255
156	0xbb78e3e0	-0.003797762
157	0x3b38f5c3	0.0028222657
158	0x386fd734	5.7182464e-05
159	0xba12bd0c	-0.0005597628
160	0x398c86c0	0.00026803277
161	0xbaeb00de	-0.0017929336
162	0xbb68a0de	-0.0035496275
163	0x3b52daa2	0.0032173772
164	0x3b5777c2	0.0032877778
165	0xbb3bfa10	-0.0028682984
166	0xbb716577	-0.003683416
167	0x3bc7b47f	0.006094515
168	0xb9f022a9	-0.0004580219
169	0x3a839792	0.0010039678
170	0x3ab0c75b	0.0013487147
171	0x3afffa85	0.0019529617
172	0xb9c9f141	-0.00038517456
173	0xbb0a5f48	-0.002111392
174	0x3a9e15e6	0.001206097
175	0xbb0a23d8	-0.0021078493
176	0xbb8f2da5	-0.004369455
177	0xbb7e64d5	-0.0038817425
178	0xbac6ab11	-0.0015157183
179	0xbb11c1d7	-0.0022240782
180	0x3b5eed6a	0.0034016022
181	0x39821c9b	0.00024816845
182	0xbaa70fb5	-0.001274577
183	0x3aa56c1b	0.0012620719
184	0x3b9d9625	0.0048091584
185	0x3b1ba9df	0.0023752374
186	0xbb0b4253	-0.002124925
187	0xbacb42d2	-0.0015507585
188	0xbb4c58ac	-0.0031180782
189	0xb843c8e1	-4.6678706e-05
190	0x39260f0f	0.00015836603
191	0xba881a11	-0.0010383745
192	0xbb73760d	-0.0037149221
193	0xba159bf5	-0.00057071383
194	0xbb5d5bb5	-0.0033776585
195	0x3b87e548	0.0041472055
196	0x3a6079b1	0.00085630553
197	0xbb186b01	-0.0023257139
198	0xbafb0505	-0.0019151276
199	0x3b4001ec	0.002929802
200	0xbad29e44	-0.0016068895
201	0x3bc95eeb	0.0061453483
202	0x39dd143a	0.00042167475
203	0x3adb959f	0.0016752965
204	0xbb3fe810	-0.0029282607
205	0xbb685066	-0.0035448312
206	0xba4f1bc0	-0.00079005584
207	0xbb76f4d0	-0.003768254
208	0x3b350b74	0.0027625235
209	0xbb785d19	-0.0037897287
210	0xbb17ead7	-0.0023180747
211	0x3ab24679	0.0013601325
212	0xba60ff27	-0.00085829425
213	0xbb34fec2	-0.0027617668
214	0xba0f302d	-0.0005462196
215	0xbb2bfd7b	-0.0026243615
216	0xbab5850f	-0.0013848859
217	0x39720625	0.00023081207
218	0x39c667a2	0.00037842715
219	0x3aa76b5f	0.0012773088
220	0x3b85c56d	0.004082373
221	0x3aed9937	0.0018127327
222	0x3a483242	0.00076368835
223	0xb5b7c260	-1.3691133e-06
224	0xbb0bb21f	-0.0021315885
225	0x3b6c1b94	0.003602718
226	0xbbaf6839	-0.0053530005
227	0x3adad35a	0.0016695068
228	0x3b0e87a3	0.0021748326
229	0x3a114896	0.0005542127
230	0xbb72b492	-0.0037033898
231	0xbafbb5bb	-0.001920394
232	0x3ac96d6d	0.0015367694
233	0x3af3c934	0.0018599392
234	0x3ab45b43	0.0013760108
235	0xbb07d799	-0.0020727871
236	0x3a8071be	0.0009799523
237	0xbb192adc	-0.0023371493
238	0x3a86778b	0.0010259015
239	0xb9e5840c	-0.00043776666
240	0x3a97dccf	0.0011586192
241	0xbb45df91	-0.003019307
242	0xbaccca4a	-0.0015624252
243	0xbb369dba	-0.0027865008
244	0x3b3bccf5	0.00286561
245	0x3a907051	0.0011019801
246	0xbb124516	-0.002231901
247	0x3ac66da6	0.0015138879
248	0x3ae3a806	0.00173688
249	0x3b370d15	0.0027931381
250	0x3ba20b83	0.00494522
251	0xbb58fe3a	-0.0033110515
252	0xbae50b3a	-0.0017474659
253	0x3a37fa68	0.00070182094
254	0x37499a24	1.2016422e-05
255	0xbb207e53	-0.0024489358

bias f4 [64]
0	0xbb94973e	-0.004534631
1	0x3c281866	0.010259723
2	0x3e1effae	0.15527222
3	0x3e41845a	0.18898144
4	0x3dd4f571	0.10398377
5	0x8af561ef	-2.362948e-32
6	0x3e2d8935	0.16946872
7	0xbaa78e89	-0.0012783568
8	0x3c87a48a	0.01655795
9	0x3e2df74d	0.16988869
10	0x3e6f6b1e	0.23380706
11	0x3e5f1071	0.21783616
12	0x3e6a077c	0.22854418
13	0x3e576a24	0.21036583
14	0xba37c464	-0.00070101605
15	0x3dff507c	0.12466523
16	0x3e61e1f3	0.22058849
17	0x3e0e73ab	0.13911311
18	0x3e69fe40	0.22850895
19	0x3e7ff238	0.24994743
20	0x3d880108	0.06640822
21	0xbb4378b4	-0.0029826583
22	0x3e7d1970	0.24716735
23	0x3da84701	0.08216668
24	0x3d8c9529	0.068643875
25	0x3e6ca8c2	0.23111251
26	0x3de10c8f	0.109887235
27	0x3dab72d3	0.0837151
28	0xb987f878	-0.0002593433
29	0xb6f48c19	-7.288076e-06
30	0xb8e57619	-0.00010941568
31	0x3d410b3d	0.04712986
32	0xbb02a075	-0.0019932066
33	0x3e6c92dc	0.23102897
34	0xabae4f77	-1.23855e-12
35	0xa4b5d90e	-7.886394e-17
36	0xbb0ebef9	-0.002178131
37	0xb8af2e8a	-8.353319e-05
38	0xbbefb28a	-0.0073149847
39	0xbc18bb28	-0.009321965
40	0x3dd50db1	0.10403002
41	0x3dc7ee82	0.09762289
42	0x3e466dfd	0.19377895
43	0x3e0bd1fc	0.13654321
44	0xbabfd247	-0.0014634811
45	0x3e5d8b00	0.21635056
46	0xbc253b38	-0.01008492
47	0x3dcbf053	0.099579476
48	0x3e0a4baa	0.13505426
49	0xb94a016e	-0.00019264754
50	0x3e0c315b	0.13690703
51	0x3e1f18a5	0.15536745
52	0xb8387f46	-4.398755e-05
53	0xaf280d5b	-1.5284256e-10
54	0xa9dd480c	-9.82687e-14
55	0x3bd28bc9	0.006425355
56	0x3db043ae	0.08606659
57	0x3e2066dc	0.15664238
58	0x3e37eb45	0.17960842
59	0x3e0811b8	0.13288009
60	0x9272392c	-7.6432205e-28
61	0x3e6bc6fe	0.23025128
62	0x3e62a285	0.22132309
63	0xa4233b74	-3.539535e-17

weight f4 [32, 64]
0	0xb8ea742f	-0.000111796304
1	0x3c66416d	0.014053685
2	0x3d956b0a	0.07295807
3	0x3d484a9a	0.04889927
4	0x3de662ca	0.11249311
5	0xb14f1c18	-3.0138434e-09
6	0x3de8090e	0.11329852
7	0x3884b247	6.327457e-05
8	0x3d421769	0.047385607
9	0x3c33abe4	0.010966275
10	0xbd8bac35	-0.06819955
11	0xbbed0242	-0.007232935
12	0x3d97bd51	0.07409156
13	0xbd2a4fa4	-0.041579857
14	0x38ba8f61	8.8958775e-05
15	0x3dd70abd	0.10500095
16	0xbc81791d	-0.015804822
17	0x3e08059c	0.1328339
18	0x3b1f53a2	0.0024311324
19	0xbda6060e	-0.081066236
20	0xbc304264	-0.010758016
21	0x3893f953	7.0559465e-05
22	0xbd83203d	-0.06402633
23	0x3de4d89d	0.11174128
24	0x3dfab70b	0.12241944
25	0xbd82a085	-0.06378273
26	0x3df83d0c	0.12121019
27	0x3dac592d	0.084154464
28	0x36ec07e4	7.0342667e-06
29	0x37914afa	1.732026e-05
30	0x376c5b32	1.4087929e-05
31	0xbcfdd65e	-0.030986007
32	0x38833854	6.257059e-05
33	0x3d63c56e	0.055608205
34	0x2798c0f0	4.239766e-15
35	0x2336ac37	9.902708e-18
36	0x38f6ea84	0.00011773876
37	0x35907651	1.0763271e-06
38	0x3a135da4	0.00056215585
39	0xb79522c1	-1.7778368e-05
40	0x3d2995c1	0.041402582
41	0x3d206203	0.03915597
42	0x3d49da0c	0.04928021
43	0x3e0578be	0.1303434
44	0xb82ae82e	-4.0747393e-05
45	0xbdc52ac9	-0.09627301
46	0xbaaaa9ce	-0.0013020576
47	0x3e126c38	0.14299095
48	0x3e06dbbb	0.13169758
49	0xb731f085	-1.0606022e-05
50	0x3da6c424	0.081428796
51	0x3dd5e02d	0.10443149
52	0x3585c58a	9.966764e-07
53	0xaade542a	-3.9493522e-13
54	0x2c36ca15	2.5975934e-12
55	0x3d39d200	0.045366287
56	0x3b45517c	0.0030108383
57	0x3deb3490	0.11484635
58	0x389589b1	7.130521e-05
59	0x3e03a275	0.12854941
60	0x1207df0b	4.287341e-28
61	0x3dd6d80a	0.10490425
62	0x3d4c1944	0.049828783
63	0x2c454b7c	2.8037286e-12
64	0x01de39b6	8.163273e-38
65	0x82a3371a	-2.3982324e-37
66	0x8291c223	-2.1417264e-37
67	0x82a98573	-2.4908914e-37
68	0x82a182ba	-2.3731857e-37
69	0x8299bc6a	-2.2589474e-37
70	0x82a30064	-2.3950922e-37
71	0x01bbce91	6.898936e-38
72	0x8297d0ea	-2.2307367e-37
73	0x82a184c6	-2.3733032e-37
74	0x82a040d4	-2.3547097e-37
75	0x82a3abf9	-2.4049405e-37
76	0x82bbe50b	-2.7608645e-37
77	0x82a767b0	-2.4597958e-37
78	0x82533388	-1.551662e-37
79	0x02aac2f7	2.509116e-37
80	0x82a2f031	-2.3941624e-37
81	0x82b02d73	-2.5886962e-37
82	0x82ae0ff2	-2.5576154e-37
83	0x82ae516f	-2.5613743e-37
84	0x820f2e3a	-1.0519247e-37
85	0x02f1f778	3.5553807e-37
86	0x82af0e76	-2.572224e-37
87	0x82b29259	-2.6238749e-37
88	0x8281af47	-1.905545e-37
89	0x82beb8b9	-2.8024016e-37
90	0x829de510	-2.3200552e-37
91	0x829e5c88	-2.3269124e-37
92	0x02e0e9c8	3.3048026e-37
93	0x829e199d	-2.3230715e-37
94	0x82a1f9dc	-2.3800236e-37
95	0x024d0b24	1.5064219e-37
96	0x81ca47bf	-7.430603e-38
97	0x82b6d687	-2.686563e-37
98	0x02eb563c	3.4579643e-37
99	0x829a64a7	-2.2686038e-37
100	0x82944bb7	-2.1790104e-37
101	0x829c7174	-2.2987259e-37
102	0x82b435bf	-2.6479472e-37
103	0x832eb0f3	-5.133713e-37
104	0x82c09273	-2.8295922e-37
105	0x82ac5aba	-2.5325203e-37
106	0x82b03942	-2.589374e-37
107	0x82878bb8	-1.9916662e-37
108	0x822aa603	-1.253727e-37
109	0x82a774be	-2.4605451e-37
110	0x823a198a	-1.3672451e-37
111	0x8256f97a	-1.5793833e-37
112	0x829a397c	-2.266126e-37
113	0x82ad6d1c	-2.548269e-37
114	0x828e7b65	-2.093585e-37
115	0x829e5390	-2.3263976e-37
116	0x029a28e5	2.2651739e-37
117	0x825f7069	-1.6415713e-37
118	0x824eaf33	-1.518477e-37
119	0x02da348a	3.2062377e-37
120	0x82a9c426	-2.4944902e-37
121	0x8256a2a1	-1.5768909e-37
122	0x82ad6d82	-2.548292e-37
123	0x829d2c92	-2.3094659e-37
124	0x82bc5a33	-2.767589e-37
125	0x82b4adf0	-2.6548458e-37
126	0x82c23a62	-2.8539248e-37
127	0x032a154e	4.9982966e-37
128	0xba385b03	-0.0007032605
129	0x3c416f11	0.011806265
130	0x3d488f2d	0.048964668
131	0xbae9f2bc	-0.001784883
132	0xbc861400	-0.016366959
133	0x8ad20fe9	-2.0228249e-32
134	0xbd9ea93b	-0.07747122
135	0x389cbb30	7.473526e-05
136	0xbbcab5df	-0.0061862315
137	0x3d21c043	0.039489996
138	0x3dc9e1c4	0.098575145
139	0xbc87f8cc	-0.016598128
140	0x3d857739	0.065168805
141	0x3dc4fd1e	0.09618591
142	0x3485a4df	2.489314e-07
143	0x3d933c20	0.07189202
144	0x3d5aec45	0.05344798
145	0x3d89e50e	0.06733142
146	0xbd607f2f	-0.05480879
147	0x3d38b631	0.045095626
148	0x3cdd0639	0.026980506
149	0xb64994db	-3.003798e-06
150	0x3dd6971f	0.10478043
151	0x3d5c2b53	0.053752255
152	0x3cace861	0.0211069
153	0xbc84836a	-0.016175944
154	0xbbe0182e	-0.00683882
155	0xbc8c5886	-0.017132055
156	0xac97f2dd	-4.3186414e-12
157	0xac5dbc53	-3.151053e-12
158	0xb3af52da	-8.164143e-08
159	0xbc4a3b09	-0.012343177
160	0xb4bc29f1	-3.5048245e-07
161	0x3de0399e	0.109484896
162	0x02aea0da	2.5659326e-37
163	0x82c6ab2c	-2.9191733e-37
164	0xba440283	-0.0007477181
165	0x244c549d	4.430712e-17
166	0xba56c5b4	-0.0008192912
167	0x3adb5cb2	0.0016735999
168	0x3d4f6f4f	0.05064326
169	0x3d25acec	0.040448114
170	0xbd29c9e1	-0.041452292
171	0xbcd68a72	-0.026189063
172	0x3531ef88	6.62862e-07
173	0x3dcaa38a	0.09894474
174	0x3abf7635	0.0014607372
175	0xbcc6252f	-0.024187652
176	0xbcd99b7a	-0.026563395
177	0x2abc058a	3.3399352e-13
178	0x3da0fa12	0.07860197
179	0x3da56b38	0.08077091
180	0x29c8b342	8.9128805e-14
181	0x02be28b6	2.7941358e-37
182	0x82ccd60f	-3.009797e-37
183	0x3c036c92	0.008021491
184	0x3c5452a8	0.01295916
185	0xbcc89b80	-0.02448821
186	0x3d060a8f	0.032724913
187	0x3c9254a4	0.017862625
188	0x9106a534	-1.0621643e-28
189	0x3d85b2cf	0.06528246
190	0x3d1c012d	0.03808706
191	0x84991b8d	-3.599543e-36
192	0xba03589c	-0.0005010457
193	0xbbc33f9f	-0.005958512
194	0x3d5db2ab	0.05412547
195	0x3d3594fb	0.044331532
196	0x3c56e2ef	0.013115629
197	0x8f12a18f	-7.229471e-30
198	0xbbaf7457	-0.005354445
199	0x38a4d2a6	7.859366e-05
200	0xbb9ff3cb	-0.0048813573
201	0xbc0df093	-0.008663314
202	0x3dd404ef	0.103525035
203	0x3be3da8c	0.006953543
204	0x3df688d6	0.12037818
205	0x3dac40e1	0.08410812
206	0x34c717a9	3.7083853e-07
207	0x3cfd429c	0.03091555
208	0x3d0c59ed	0.034265447
209	0x3c69bf17	0.014266751
210	0x3df6e50a	0.120554045
211	0x3e083e1e	0.13304946
212	0xbba51897	-0.0050383317
213	0xb6226409	-2.419811e-06
214	0x3b0df062	0.0021658172
215	0xbc07dd39	-0.00829249
216	0x3d7e652c	0.062108204
217	0x3dbd533e	0.09244393
218	0x3d87362f	0.066021316
219	0x3d15c3cb	0.036563676
220	0xacadb293	-4.9367815e-12
221	0xab061956	-4.7641524e-13
222	0xb3ae5b4a	-8.119112e-08
223	0x3bf62ee0	0.007512912
224	0xb44be3e7	-1.8988759e-07
225	0x3de70591	0.112803586
226	0x02c50a99	2.8952631e-37
227	0x82bc6275	-2.7680629e-37
228	0xba2e90f8	-0.0006659175
229	0x256d8954	2.0603002e-16
230	0xba4487cf	-0.00074970437
231	0x3ac1b473	0.001477851
232	0xbd1b41d2	-0.037904568
233	0x3c095d8b	0.008384119
234	0x3d9bf28b	0.07614621
235	0x3c8f8b13	0.01752237
236	0x357b8ec2	9.3712526e-07
237	0x3e0615af	0.13094209
238	0x3ac0f0c8	0.0014720196
239	0x3d80dd25	0.0629218
240	0x3cee7991	0.029110702
241	0x2c07f9ef	1.9323395e-12
242	0x3d9c719e	0.07638858
243	0xbca24925	-0.019810269
244	0x2a98bc53	2.71313e-13
245	0x02bee226	2.8047794e-37
246	0x82cd095b	-3.0127413e-37
247	0x3c0bd575	0.008534779
248	0x3d98fd1d	0.074701525
249	0xbc160626	-0.009156739
250	0x3df5e013	0.120056294
251	0x3c5df9ef	0.013548358
252	0x911cb4b1	-1.236191e-28
253	0x3ca0ae70	0.019614428
254	0x3dbc6b5d	0.092001654
255	0x067340c3	4.57508e-35

bias f4 [32]
0	0xbe456701	-0.19277574
1	0x82bfebf2	-2.8200354e-37
2	0x3de8b001	0.11361695
3	0x3dd7da9d	0.10539744
4	0x3d850d61	0.064966924
5	0x3ca2ab33	0.019857025
6	0x3e68c1b5	0.22730143
7	0x3dcc0818	0.09962481
8	0x82af206d	-2.573255e-37
9	0x3d94ca0b	0.07265099
10	0x3e0a3051	0.13494994
11	0x3e2ea637	0.17055593
12	0xbe26cb2f	-0.16288446
13	0x3dfdfd31	0.12401808
14	0x3d88d04f	0.06680357
15	0x3d918ecb	0.07107314
16	0x3e21d587	0.1580411
17	0xbe3e381b	-0.1857609
18	0x83341d39	-5.293079e-37
19	0x3d91000f	0.07080089
20	0x83085d5a	-4.007397e-37
21	0x3e111d8a	0.14171425
22	0x3e3936b3	0.18087272
23	0x3e6d4954	0.23172504
24	0x3db7ebef	0.08980548
25	0x3e31ea42	0.17374519
26	0x3dff4ad7	0.124654464
27	0x82b91dc8	-2.72004e-37
28	0xbe27836f	-0.16358732
29	0x3e686846	0.22696027
30	0x3ca0d5b2	0.019633148
31	0x3e305d78	0.17223155

weight f4 [16, 32]
0	0x829b2fa4	-2.2802547e-37
1	0x82862618	-1.9711395e-37
2	0x82ba4011	-2.7367016e-37
3	0x82baf6c7	-2.7471887e-37
4	0x82c3320a	-2.8681396e-37
5	0x82b17fde	-2.6081205e-37
6	0x82b1708a	-2.6072407e-37
7	0x82b2b89a	-2.6260705e-37
8	0x83138654	-4.335362e-37
9	0x82c9b6f3	-2.9639303e-37
10	0x82aa80e8	-2.5053244e-37
11	0x82af3215	-2.5742685e-37
12	0x82b17227	-2.6073333e-37
13	0x82bf7063	-2.8129434e-37
14	0x02aae58e	2.5111013e-37
15	0x82b635fb	-2.677348e-37
16	0x82b8db29	-2.7162162e-37
17	0x82a7a3b0	-2.4632397e-37
18	0x835351d7	-6.2101275e-37
19	0x82b5076c	-2.659982e-37
20	0x82a86b38	-2.4746922e-37
21	0x82ac06dc	-2.5277066e-37
22	0x82acd97b	-2.5397956e-37
23	0x02c64ec8	2.9138703e-37
24	0x82bbdeb8	-2.7605015e-37
25	0x82aefe82	-2.5713082e-37
26	0x82bede74	-2.8045673e-37
27	0x0365d6b4	6.754352e-37
28	0x829fdc71	-2.3489477e-37
29	0x82c35838	-2.870331e-37
30	0x82a2b5a0	-2.3908008e-37
31	0x82bdb7b5	-2.7876497e-37
32	0x3e233aff	0.15940474
33	0x82c8e650	-2.9519552e-37
34	0x3d16a08a	0.036774196
35	0x3e09df2a	0.13464037
36	0xbdce796a	-0.10081752
37	0x3e4a5c91	0.19761874
38	0x3baa2ab6	0.00519308
39	0xbd615334	-0.05501099
40	0x82abaad4	-2.5224242e-37
41	0x3d990b2a	0.074728325
42	0xb9a268a9	-0.00030977026
43	0xbe194922	-0.14969304
44	0x3df2e157	0.118593864
45	0x3daaee52	0.08346237
46	0x3e208baa	0.15678278
47	0x3c845fd3	0.016158974
48	0xbd26f8a4	-0.040764466
49	0x3e1ba125	0.1519819
50	0x82bca202	-2.7717105e-37
51	0xbd4af680	-0.049551487
52	0x032dc3df	5.106498e-37
53	0xbd30bb94	-0.04314764
54	0x3d7c6243	0.061617147
55	0xbb98ca51	-0.00466279
56	0x3dcd8cb5	0.10036603
57	0x3d8c8c21	0.06862665
58	0x3d858963	0.06520345
59	0x82c1df0e	-2.8486828e-37
60	0x3e108c2a	0.14115968
61	0xbd02d1f1	-0.031938497
62	0x3d6149be	0.055001967
63	0x3d434a17	0.04767808
64	0x822a3fce	-1.2507939e-37
65	0x03174c0a	4.44622e-37
66	0x82ae1c57	-2.5583268e-37
67	0x82b817f5	-2.705012e-37
68	0x8297ef5c	-2.2324841e-37
69	0x82b38d78	-2.6382885e-37
70	0x82a8e70a	-2.4817991e-37
71	0x8280fa8a	-1.8951712e-37
72	0x834aa560	-5.9552306e-37
73	0x82a7a91a	-2.4635504e-37
74	0x82a1219e	-2.367612e-37
75	0x825fc96f	-1.6441261e-37
76	0x81c77eae	-7.328283e-38
77	0x82a4e74b	-2.423039e-37
78	0x82aaed4d	-2.511546e-37
79	0x82affe01	-2.585973e-37
80	0x82a23880	-2.383619e-37
81	0x81773e7a	-4.541156e-38
82	0x81268ebd	-3.0591794e-38
83	0x8275eddc	-1.806802e-37
84	0x02a055b6	2.3559083e-37
85	0x82a8ed44	-2.4821565e-37
86	0x8296de22	-2.2168017e-37
87	0x82a91248	-2.484281e-37
88	0x82b02fa1	-2.5888213e-37
89	0x82b38320	-2.6376948e-37
90	0x82d52b78	-3.1322487e-37
91	0x02af26c6	2.5736194e-37
92	0x030c193b	4.1171265e-37
93	0x82aed283	-2.568783e-37
94	0x8319dea1	-4.5218224e-37
95	0x82984d41	-2.2378734e-37
96	0x816779d6	-4.2515412e-38
97	0x8287ab57	-1.9934811e-37
98	0x019a22e8	5.6620754e-38
99	0x828b68cf	-2.0484372e-37
100	0x0235dbaf	1.3360826e-37
101	0x8298754b	-2.2401716e-37
102	0x82954af2	-2.1936599e-37
103	0x028b5706	2.0474163e-37
104	0x02c737b7	2.92724e-37
105	0x82212f30	-1.1841954e-37
106	0x828df0e3	-2.085635e-37
107	0x02c631db	2.91221e-37
108	0x8045c550	-6.407432e-39
109	0x0314dc1d	4.374597e-37
110	0x828c34d1	-2.0601466e-37
111	0x827dd19c	-1.8647659e-37
112	0x81d491b8	-7.8085597e-38
113	0x0213440c	1.0819383e-37
114	0x8299f6ae	-2.2622917e-37
115	0x031638a8	4.4146076e-37
116	0x029cb378	2.302515e-37
117	0x80ef9c0a	-2.200466e-38
118	0x8214fd52	-1.0946022e-37
119	0x828fe2db	-2.114217e-37
120	0x826e0e55	-1.7489592e-37
121	0x826b71ff	-1.7297789e-37
122	0x8282a4aa	-1.9196296e-37
123	0x81f54d1a	-9.010942e-38
124	0x82b38e77	-2.6383457e-37
125	0x8299e336	-2.2611742e-37
126	0x026582c0	1.6861786e-37
127	0x8235cca5	-1.335651e-37
128	0xbe18a2ac	-0.14905804
129	0x02b48734	2.6526226e-37
130	0xbd1c05d7	-0.038091507
131	0x3e109b12	0.14121655
132	0xbdae03fa	-0.08496852
133	0xbb58c5a6	-0.0033076792
134	0x3e5640b1	0.20923115
135	0x3e3499c0	0.17636776
136	0x82bd785a	-2.7840132e-37
137	0x3dede256	0.11615436
138	0x3db020c6	0.08600001
139	0x3d824436	0.063606665
140	0xbd185b20	-0.03719628
141	0xbd43afe4	-0.047775164
142	0x3e13d6eb	0.14437453
143	0x3daebfeb	0.08532699
144	0x3c874efb	0.016517153
145	0xbd8b2ff7	-0.06796258
146	0x02c75596	2.9289546e-37
147	0x3d4858ef	0.04891294
148	0x8241b84e	-1.4232293e-37
149	0x3e2a8731	0.16653134
150	0x3e183b0f	0.14866279
151	0xbd6ee3c9	-0.0583227
152	0xbdbdf89e	-0.092759356
153	0x3e034a44	0.12821299
154	0x3e1d682e	0.15371773
155	0x02bc5d55	2.7677687e-37
156	0xbdce3caa	-0.100701645
157	0x3d03f4ff	0.03221607
158	0xbdbc901e	-0.09207176
159	0x3d1fe48a	0.03903631
160	0xbe431f53	-0.19054918
161	0x02bf295c	2.8088667e-37
162	0x3dfa116c	0.12210354
163	0x3e731638	0.23738945
164	0x3e0c43ea	0.13697782
165	0x3e0b85b7	0.13625227
166	0xbd2b88be	-0.041878454
167	0x3e00a1f1	0.12561776
168	0x82ae7f05	-2.5639908e-37
169	0x3e0a8d19	0.13530387
170	0x3e5e1e45	0.21691234
171	0x3e144845	0.14480694
172	0xbe2c108c	-0.16803187
173	0x3e3630c8	0.17792046
174	0x3dc1c45e	0.09461282
175	0x3e41035a	0.18848935
176	0x3e6618e4	0.22470433
177	0xbe5c9771	-0.21542145
178	0x82b412f8	-2.645951e-37
179	0x3d8d6aa3	0.06905105
180	0x83081685	-3.999266e-37
181	0xbc7aff98	-0.015319727
182	0x3d829bdd	0.06377385
183	0x3cdec344	0.02719272
184	0x3e124dac	0.14287442
185	0x3df07228	0.117405236
186	0x3da0974c	0.078413576
187	0x02c7bd06	2.9348916e-37
188	0xbdf2c0e8	-0.118532
189	0x3d9ca9c5	0.076495685
190	0x3c7be1d6	0.015373668
191	0xbcefb31e	-0.029260214
192	0xbe29bdee	-0.16576359
193	0x02b37ccf	2.6373323e-37
194	0x3e271924	0.16318184
195	0x3da39959	0.07988233
196	0xbe0155c8	-0.12630379
197	0xbe0c92e2	-0.13727906
198	0x3c39cb05	0.011339908
199	0x3d77f5f6	0.0605373
200	0x82bcaafc	-2.7722257e-37
201	0x3dfbc920	0.12294221
202	0x3e00d871	0.12582566
203	0x3e3f26a2	0.18667081
204	0xbd46bff2	-0.048522897
205	0x3e2190d2	0.15777901
206	0xbdf0b32d	-0.11752925
207	0x3c6a8fda	0.014316523
208	0x3d222540	0.039586306
209	0xbe309386	-0.17243776
210	0x02b92153	2.7202434e-37
211	0x3e1a753a	0.15083781
212	0x8120342a	-2.9424785e-38
213	0x3da7a766	0.081862256
214	0xbc50a65c	-0.012734976
215	0x3dea1dd5	0.11431471
216	0x3dcd474e	0.10023366
217	0x3cdb5f23	0.026778763
218	0xbcca7904	-0.024715908
219	0x82b80d8e	-2.704415e-37
220	0xbe2e33ac	-0.17011899
221	0x3e281001	0.16412355
222	0x3dbc0a18	0.09181613
223	0x3d355de3	0.04427899
224	0x3c30d0d4	0.010791976
225	0x829f37d2	-2.339499e-37
226	0x3dbb2997	0.09138792
227	0x3c338122	0.010956081
228	0x3c123bb4	0.008925367
229	0xbd3c45f3	-0.045965146
230	0xbd584e58	-0.05280909
231	0x3be797f9	0.007067677
232	0x825439f8	-1.5591936e-37
233	0xbc24080d	-0.010011685
234	0x3c00db0a	0.007864723
235	0xbc4496cb	-0.0119988425
236	0x3baf92d0	0.0053580776
237	0xbb1ebffa	-0.0024223314
238	0x3d168359	0.036746357
239	0x3d0b0c5c	0.033947334
240	0x3b8f6087	0.0043755206
241	0x3c29da64	0.01036701
242	0x82addb91	-2.554609e-37
243	0x3c1eea97	0.009699485
244	0x012a6ed2	3.1303578e-38
245	0xbd30b7c0	-0.043143988
246	0x3bd913bd	0.0066246674
247	0x3d09f03c	0.03367637
248	0x3da5a1c0	0.08087492
249	0x3c3eee3f	0.011653482
250	0xbd4b5fb0	-0.0496518
251	0x82bf66d4	-2.8123948e-37
252	0x3c656c71	0.014002905
253	0x3cd43ae9	0.025906997
254	0x3bd03198	0.0063535683
255	0x3c03761f	0.008023768

bias f4 [16]
0	0x82c42bba	-2.882471e-37
1	0xbe950629	-0.29106262
2	0x82abe95c	-2.5260133e-37
3	0x82bae6b5	-2.7462663e-37
4	0x3e348d9a	0.17632142
5	0x3de38767	0.1110981
6	0x3d734530	0.059392154
7	0xbd7784b2	-0.060429282
8	0x82bcbe40	-2.7733315e-37
9	0x82aee716	-2.569964e-37
10	0x82b2fe3f	-2.630068e-37
11	0x3c9b8c4c	0.018987797
12	0xbcb9d269	-0.02268334
13	0x3d80db08	0.06291777
14	0xbe1f986f	-0.15585493
15	0x82af5cf5	-2.5767294e-37

weight f4 [8, 16]
0	0x82b3af50	-2.640231e-37
1	0xbe9bbd28	-0.30417752
2	0x01e4f41b	8.4104247e-38
3	0x02c369a0	2.87133e-37
4	0x3cf14476	0.02945159
5	0x3e87e765	0.26543728
6	0xbe058769	-0.13039936
7	0xbc37a76c	-0.01120935
8	0x02bfa584	2.815993e-37
9	0x82c5214a	-2.8965655e-37
10	0x02b292c6	2.6238993e-37
11	0xbd256568	-0.04037991
12	0x3e8d656f	0.2761645
13	0x3ea42ea8	0.32066846
14	0xbe7cd0e9	-0.24689068
15	0x82a70156	-2.4539211e-37
16	0x02a1e199	2.378631e-37
17	0x82978a58	-2.2266861e-37
18	0x01e07cb5	8.246355e-38
19	0x029805e2	2.233777e-37
20	0x82cd8834	-3.020022e-37
21	0x82bbd8b5	-2.7601564e-37
22	0x02b47a46	2.6518804e-37
23	0x829c7dc9	-2.2994337e-37
24	0x828a9b03	-2.036625e-37
25	0x0299296a	2.25051e-37
26	0x81a3fc6e	-6.023896e-38
27	0x82c91740	-2.954764e-37
28	0x82b95eb7	-2.723767e-37
29	0x82c6c29b	-2.9205183e-37
30	0x82b9d04d	-2.7302866e-37
31	0x828a54e5	-2.0326005e-37
32	0x8299c456	-2.259402e-37
33	0x82a03d06	-2.3544913e-37
34	0x0251261b	1.5365831e-37
35	0x8289f1cd	-2.0269128e-37
36	0x828403c4	-1.9397818e-37
37	0x01da9d92	8.0306655e-38
38	0x829d6531	-2.3127158e-37
39	0x82a237b1	-2.3835726e-37
40	0x01aface2	6.453292e-38
41	0x829ff97f	-2.3506154e-37
42	0x02a3791e	2.4020215e-37
43	0x829127e1	-2.1328724e-37
44	0x820384ef	-9.66251e-38
45	0x8285eaac	-1.9677289e-37
46	0x03461c13	5.82192e-37
47	0x829eefe8	-2.3353713e-37
48	0x029b0306	2.2776938e-37
49	0x82d2cf58	-3.0975736e-37
50	0x829bc601	-2.2888852e-37
51	0x82afcde0	-2.5832105e-37
52	0x82be6dd0	-2.798102e-37
53	0x82bb7d5e	-2.7549138e-37
54	0x82ac327c	-2.5302105e-37
55	0x82b545d2	-2.6635635e-37
56	0x029a8f1e	2.2710411e-37
57	0x82893293	-2.015937e-37
58	0x82a0f41c	-2.365e-37
59	0x82ba91cc	-2.7413927e-37
60	0x82c34bc6	-2.8696167e-37
61	0x82ab9cdf	-2.5216231e-37
62	0x82bbe266	-2.7607127e-37
63	0x02a059b3	2.3561372e-37
64	0x029434e9	2.1777014e-37
65	0x0289166a	2.0143206e-37
66	0x01a25765	5.9634807e-38
67	0x82770bf4	-1.8150124e-37
68	0x8253c38c	-1.5557951e-37
69	0x8274fbdb	-1.7998568e-37
70	0x024491d8	1.4441661e-37
71	0x824b6642	-1.4943431e-37
72	0x032e096f	5.1144833e-37
73	0x82a4cab8	-2.421399e-37
74	0x82a064c5	-2.3567726e-37
75	0x0294e47b	2.1877787e-37
76	0x0184b57c	4.874956e-38
77	0x82971a87	-2.2202682e-37
78	0x029f745d	2.342974e-37
79	0x828c5899	-2.0622004e-37
80	0x0293212e	2.1618753e-37
81	0x029cc778	2.303663e-37
82	0x8218a393	-1.121414e-37
83	0x02d47d03	3.1222354e-37
84	0x028a0baa	2.0283972e-37
85	0x029d3d36	2.310421e-37
86	0x025ae524	1.6081871e-37
87	0x824e0329	-1.5135397e-37
88	0x029893d1	2.2419235e-37
89	0x8291b7a2	-2.1411235e-37
90	0x83490827	-5.907795e-37
91	0x82a28b4b	-2.388371e-37
92	0x019db75b	5.7935794e-38
93	0x828e20c5	-2.0883834e-37
94	0x02965c8b	2.2093636e-37
95	0x023057c6	1.2955628e-37
96	0x02ce4003	3.030572e-37
97	0xbe17550d	-0.14778538
98	0x02b82862	2.7059549e-37
99	0x02b3e0fe	2.6430825e-37
100	0x3df96acd	0.12178574
101	0x3e1ef362	0.1552253
102	0x3e9e533b	0.30922875
103	0xbcafc1c1	-0.021454694
104	0x02b37a8a	2.637202e-37
105	0x82cdfc1e	-3.026675e-37
106	0x82cc4c74	-3.0018988e-37
107	0x3db43a4c	0.08800182
108	0x3d5cf280	0.053942204
109	0x3e59652c	0.2123
110	0xbe099d4a	-0.13438907
111	0x82af6be2	-2.577586e-37
112	0x02cbba56	2.993512e-37
113	0xbebe270c	-0.37139165
114	0x02c131ad	2.8387314e-37
115	0x82c693a7	-2.9178233e-37
116	0x3dddeb07	0.108358435
117	0x3e9520ef	0.2912669
118	0x3e18f56b	0.1493737
119	0xbccb558d	-0.024821067
120	0x02bb4a8e	2.7519973e-37
121	0x82ac593b	-2.5324344e-37
122	0x82bf00b3	-2.806533e-37
123	0x3ea2c96d	0.317943
124	0xbdb50137	-0.08838122
125	0x3e98265c	0.29716766
126	0xbe2d769d	-0.16939779
127	0x02a28ce5	2.388463e-37

bias f4 [8]
0	0x3e355cfc	0.17711252
1	0x82ae2ce4	-2.5592768e-37
2	0x82a792a9	-2.4622623e-37
3	0x02a50d07	2.4252048e-37
4	0x02c25e7d	2.8559972e-37
5	0x829fb859	-2.346876e-37
6	0x3daf11b4	0.085482985
7	0x3e3d1efe	0.18468854

weight f4 [8, 8]
0	0x3dea1d1c	0.114313334
1	0x8294288e	-2.1769923e-37
2	0x81b73620	-6.730125e-38
3	0x02ab013a	2.5126896e-37
4	0x829ca846	-2.3018724e-37
5	0x029fb9fc	2.34697e-37
6	0x3d8f1e51	0.06988204
7	0xbd29cedc	-0.041457042
8	0x3e3311fb	0.17487328
9	0x02b04fa6	2.5906592e-37
10	0x8299f23b	-2.2620363e-37
11	0x82a9bd16	-2.4940848e-37
12	0x0296434b	2.2079143e-37
13	0x0294dbae	2.1872735e-37
14	0xbe4362d0	-0.19080663
15	0xbe08d51c	-0.13362545
16	0xba6e81b1	-0.0009098305
17	0x025d833a	1.6274176e-37
18	0x829af567	-2.276912e-37
19	0x02a8d09b	2.4805115e-37
20	0x8275f300	-1.8069495e-37
21	0x829a8fa6	-2.2710716e-37
22	0x3e3856ee	0.18001911
23	0xbe20fae8	-0.15720713
24	0xbd4810d4	-0.048844174
25	0x029e619c	2.3272038e-37
26	0x0291965c	2.1392137e-37
27	0x82acc58c	-2.5386515e-37
28	0x028db50c	2.0822004e-37
29	0x02ab2943	2.5149875e-37
30	0x3e60512a	0.21905962
31	0x3b178680	0.002312094
32	0xbd55909d	-0.052139867
33	0x028611fe	1.9699857e-37
34	0x02a3b5bd	2.405501e-37
35	0x8278401c	-1.8238561e-37
36	0x8282592a	-1.915296e-37
37	0x829f8702	-2.344044e-37
38	0xbd85f725	-0.0654128
39	0x3e0849d5	0.13309415
40	0xbdaa13c7	-0.083045535
41	0x82915e40	-2.1359932e-37
42	0x021cdf36	1.1525128e-37
43	0x82b01d59	-2.587772e-37
44	0x02852fd0	1.9570037e-37
45	0x8292c6c4	-2.1566858e-37
46	0xbe36571f	-0.17806672
47	0x3eb2cdd5	0.34922662
48	0x3dab6cf9	0.08370394
49	0x02a8e93a	2.4819247e-37
50	0x029edf96	2.3344345e-37
51	0x02a218fe	2.3818105e-37
52	0x02997646	2.2549215e-37
53	0x82a072a6	-2.3575692e-37
54	0xbddbfd3e	-0.107416615
55	0xbd401ca8	-0.04690233
56	0xbe8deb5f	-0.27718636
57	0x02d37c36	3.1074957e-37
58	0x02a09374	2.359452e-37
59	0x82a6b396	-2.4494585e-37
60	0x82a65866	-2.4442246e-37
61	0x025df6f7	1.6307391e-37
62	0xbe562a1a	-0.20914498
63	0x3e88b4f7	0.26700565

bias f4 [8]
0	0xbdfc8e48	-0.123318255
1	0x3e212fcd	0.15740891
2	0x3d091850	0.03347045
3	0xbe168e1e	-0.14702651
4	0xbd5793f4	-0.052631333
5	0xbe3e21a9	-0.18567528
6	0x3d8d417d	0.068972565
7	0x3e075498	0.13215864

weight f4 [8, 8]
0	0x3d9006fe	0.07032584
1	0x81af84aa	-6.447521e-38
2	0x828e0229	-2.0866265e-37
3	0x029fe984	2.3496982e-37
4	0x829d8d75	-2.315027e-37
5	0x829febac	-2.349822e-37
6	0x3e122902	0.14273456
7	0xbe146518	-0.14491689
8	0x3e686ce9	0.22697796
9	0x029f2b9c	2.338798e-37
10	0x02702a7a	1.7644605e-37
11	0x82a89e80	-2.4776356e-37
12	0x026cf1b7	1.740791e-37
13	0x8292c956	-2.1568333e-37
14	0x3c47a050	0.012184218
15	0xbec1c874	-0.37848246
16	0x3dc25483	0.094887756
17	0x01cb941d	7.4782955e-38
18	0x02abd7dc	2.525009e-37
19	0x02bc3e89	2.766001e-37
20	0x028a9481	2.0362515e-37
21	0x81a33177	-5.994772e-38
22	0x3dccb402	0.09995271
23	0xbede7e1f	-0.43455598
24	0x3d8f451f	0.06995606
25	0x0277e7b6	1.8213192e-37
26	0x02a424ca	2.411875e-37
27	0x029fda3e	2.3488215e-37
28	0x829c477c	-2.296317e-37
29	0x8296b764	-2.214578e-37
30	0xbe81c36a	-0.25344402
31	0xbd249c81	-0.040188316
32	0xbe6e6cea	-0.23283735
33	0x817d765a	-4.6553674e-38
34	0x8299937a	-2.2565977e-37
35	0x82966320	-2.2097414e-37
36	0x02a2cc07	2.3920867e-37
37	0x029a6147	2.26841e-37
38	0xbd008b4c	-0.031382844
39	0x3e7f03ef	0.24903844
40	0xbd4d7535	-0.050160605
41	0x82a3ad9f	-2.405035e-37
42	0x028bc6d6	2.053834e-37
43	0x829c4bb2	-2.2965587e-37
44	0x82947561	-2.1814018e-37
45	0x82a215c8	-2.3816262e-37
46	0x3e4e6efc	0.20159525
47	0xbed6feed	-0.41991368
48	0xbe1a2161	-0.15051796
49	0x82fbdcac	-3.7007795e-37
50	0x029b7dbe	2.2847376e-37
51	0x02a15ce6	2.3710145e-37
52	0x02947585	2.1814098e-37
53	0x82850c0e	-1.9549513e-37
54	0xbe9b7623	-0.3036357
55	0xbe035bbb	-0.12827961
56	0xbeb9bc78	-0.36276603
57	0x028a71e6	2.0342652e-37
58	0x829c0684	-2.292588e-37
59	0x82977886	-2.2256633e-37
60	0x829537fc	-2.1925716e-37
61	0x8281c256	-1.906639e-37
62	0xbe1acfc5	-0.1511832
63	0xbcfec395	-0.03109912

bias f4 [8]
0	0xbebb2f14	-0.36559355
1	0xbdf8f4a6	-0.12156038
2	0xba3f250b	-0.00072915916
3	0xbe13fa2f	-0.14450906
4	0xbec8c38f	-0.392117
5	0x3d0f2969	0.0349516
6	0x3e643d76	0.2228907
7	0x3e383df4	0.17992383

weight f4 [16, 8]
0	0xbd7891ce	-0.060685925
1	0xbd52326c	-0.051317617
2	0x3e1aea60	0.1512847
3	0xbe36afbb	-0.17840473
4	0x3ac55d4a	0.001505771
5	0xbdee5c3f	-0.11638688
6	0xbde08029	-0.109619446
7	0xbd6a7b6c	-0.05724661
8	0x3deaea1f	0.11470436
9	0x3d7c0e9c	0.06153737
10	0x3e2258c0	0.15854168
11	0xbd5dd9d3	-0.05416281
12	0xbdec99ec	-0.11552796
13	0xbd80d79c	-0.06291124
14	0xbe5e9b2e	-0.21738884
15	0xbd9485cf	-0.072520845
16	0x3e5219b2	0.20517614
17	0x3e69bd01	0.22826006
18	0x3ccb3d6b	0.02480956
19	0x3cce8e52	0.025214348
20	0x3d34c610	0.0441342
21	0xbde3bbc1	-0.111197956
22	0x3e72d17e	0.23712727
23	0x3e822b81	0.25423816
24	0x3d9201e8	0.0712927
25	0xbe0b0af5	-0.13578399
26	0x3d6e7be7	0.05822363
27	0x3c49d22f	0.012318178
28	0x3dcaa901	0.09895516
29	0xbce2ba3d	-0.027676696
30	0xbd593bb1	-0.05303544
31	0x3e2046e9	0.1565205
32	0xbe40d737	-0.18832098
33	0xbdd196ab	-0.10233816
34	0xbc21d744	-0.0098779835
35	0x3e5dd819	0.21664466
36	0xbd2f723a	-0.042833544
37	0x3d5d0f81	0.053969864
38	0xbd97bb30	-0.0740875
39	0x3dec3ded	0.11535249
40	0xbcb86380	-0.022508383
41	0x3daefe8d	0.085446455
42	0x3e2f996d	0.17148371
43	0xbe4f8580	-0.2026577
44	0x3b7ad02a	0.0038271048
45	0xbd8717d3	-0.06596341
46	0x3dbc82dc	0.09204647
47	0x3d0e8640	0.034796
48	0xbce8ab56	-0.028402012
49	0x3e11a87b	0.14224426
50	0xbdd60999	-0.10451049
51	0xbe51a3b5	-0.20472606
52	0x3e070afd	0.13187785
53	0x3d445206	0.047929786
54	0x3cb3b223	0.021935528
55	0x3e2aeb7a	0.1669139
56	0xbd908708	-0.07057005
57	0xbdd177de	-0.10227941
58	0x3d08ce30	0.03339976
59	0xbcd4a645	-0.02595819
60	0xbd090b7a	-0.03345821
61	0xbbf20ea3	-0.0073869987
62	0x3dc503b2	0.096198454
63	0x3e6d38e2	0.2316623
64	0x3e46b459	0.19404735
65	0x3dec88d9	0.11549539
66	0x3e1c43b7	0.15260206
67	0x3e99569e	0.29948896
68	0x3dfe0fec	0.124053806
69	0x3db67f1e	0.089109644
70	0xbe25e881	-0.16201974
71	0xbe069ba1	-0.13145305
72	0xbcd8effa	-0.026481617
73	0xbda23185	-0.07919601
74	0x3e44e01c	0.19226116
75	0xbe4cf775	-0.20016272
76	0x3dd56979	0.10420508
77	0xbe1d5894	-0.15365821
78	0x3d31025d	0.043215144
79	0x3e490016	0.19628939
80	0x3e189907	0.14902125
81	0x3d1c6eb7	0.038191523
82	0xbe58f1b1	-0.21185948
83	0x3d9f28fc	0.07771489
84	0x3e794e08	0.24346173
85	0x3d2fefd8	0.042953342
86	0x3e12d881	0.14340402
87	0xbd1dc692	-0.03851945
88	0x3e6a3138	0.22870338
89	0x3e41651f	0.18886231
90	0xbe2d54e1	-0.1692691
91	0x3c06fcd4	0.00823899
92	0xbcbd41e1	-0.023102703
93	0xbe355947	-0.17709838
94	0xbe59ed75	-0.21281989
95	0xbe01f2af	-0.12690233
96	0x3e3d6ebc	0.18499273
97	0x3e3a8ee0	0.18218565
98	0xbe857756	-0.2606761
99	0x3e3a6c57	0.18205391
100	0x3e36ed7d	0.17864032
101	0x3dbed995	0.09318844
102	0x3e3d221d	0.18470044
103	0xbe859df6	-0.26097077
104	0xbe61397c	-0.21994585
105	0x3e260ab9	0.16215028
106	0xbe49cbf3	-0.19706707
107	0xbce45d39	-0.027876483
108	0x3bfb9f97	0.0076789367
109	0xbdf8ac55	-0.12142245
110	0x3dc99c77	0.098442964
111	0x3dc327b1	0.09529055
112	0x3e1352ef	0.14387105
113	0x3e02ec10	0.12785363
114	0x3deb142a	0.11478455
115	0x3de5b34e	0.1121584
116	0xbe3ae134	-0.1824997
117	0xbe064920	-0.13113832
118	0xbd69455d	-0.056950916
119	0x3e549d7a	0.20763198
120	0xbda5b47b	-0.080910645
121	0x3d359cf8	0.04433915
122	0x3e571a13	0.2100604
123	0xbd8ef46d	-0.06980214
124	0x3db921c4	0.090396434
125	0xbcea66db	-0.028613498
126	0xbe26dda5	-0.16295488
127	0xbe1c3f31	-0.1525848

bias f4 [16]
0	0x3e68f1be	0.22748467
1	0x3ea9c0be	0.33154863
2	0xbec01b68	-0.3752091
3	0xbe94d211	-0.29066518
4	0xbed2e0ea	-0.4118722
5	0xbe95080f	-0.2910771
6	0xbef369b8	-0.47541595
7	0x3e6ce49d	0.23134084
8	0xbd9d2772	-0.07673539
9	0xbdc82b54	-0.09773889
10	0x3d9afdb2	0.0756792
11	0xbe94be3c	-0.29051387
12	0x3e811126	0.25208396
13	0xbe6ca6e3	-0.23110537
14	0xbdb9a6b7	-0.090650015
15	0x3e0a0148	0.13477051

weight f4 [32, 16]
0	0xbd4dd76c	-0.05025427
1	0x3d2e9458	0.04262194
2	0x029e88d4	2.329455e-37
3	0xb0a5f1d7	-1.2074065e-09
4	0x3a353c90	0.00069136266
5	0x82aa5028	-2.5025262e-37
6	0x82bdab94	-2.7869535e-37
7	0xbd5f379f	-0.054496404
8	0xba8c59d0	-0.0010707919
9	0x02a9a71c	2.4928234e-37
10	0x3524579b	6.1222244e-07
11	0xbc1c1b6d	-0.009528023
12	0xbd8227b1	-0.06355227
13	0x20fa2630	4.2376918e-19
14	0xbd0e614f	-0.03476077
15	0xbd5183a5	-0.051150937
16	0xb943fbe5	-0.00018690487
17	0x3b651817	0.0034956986
18	0x82b7f394	-2.702924e-37
19	0x02da5748	3.2082318e-37
20	0x82ad7aec	-2.549062e-37
21	0x82c2bbce	-2.8613533e-37
22	0x82b1bc4f	-2.6115896e-37
23	0x82ba0e8e	-2.7338598e-37
24	0xba193196	-0.00058438757
25	0x82bd22cf	-2.7791033e-37
26	0xa94a93a4	-4.4981068e-14
27	0x3bedddb6	0.007259096
28	0x3975aaac	0.00023428601
29	0x02b4398a	2.6481649e-37
30	0xb899a3f8	-7.32615e-05
31	0xb977d251	-0.00023634105
32	0xbda1c226	-0.07898359
33	0x3db0e4c8	0.086373866
34	0x3cf0c7bb	0.029392114
35	0xbd38e5c8	-0.04514101
36	0x3d8dcc81	0.06923772
37	0xba0d477f	-0.0005389377
38	0x82b83abb	-2.707008e-37
39	0xbe47d943	-0.19516473
40	0x3e082489	0.13295187
41	0xbde7d84a	-0.11320551
42	0xbbb589e3	-0.005540119
43	0xbdeb3054	-0.11483827
44	0xbe32932b	-0.17438953
45	0xb819a55a	-3.663204e-05
46	0x3deb27d3	0.11482205
47	0x3db43aad	0.08800254
48	0xbb182521	-0.002321549
49	0xbb3ba629	-0.0028632975
50	0x3a0f8319	0.0005474552
51	0x02a162dc	2.3713566e-37
52	0xbae605b7	-0.001754931
53	0xba343f21	-0.0006875862
54	0xb9f7fea1	-0.00047301225
55	0xbbc45635	-0.005991722
56	0xaf52b4ca	-1.9163618e-10
57	0x02cb7f84	2.990136e-37
58	0xbdda052c	-0.10645518
59	0xbc0541e0	-0.008133382
60	0x3df9affd	0.1219177
61	0x3e02aecb	0.1276199
62	0x3acb3b1e	0.0015505289
63	0xbc153cd0	-0.009108737
64	0x3baee458	0.0053372793
65	0x3d77f208	0.060533553
66	0xbdd0dc60	-0.10198283
67	0x3e690828	0.22757018
68	0xbe212f38	-0.15740669
69	0x3e3caa03	0.1842423
70	0xbd294f65	-0.041335482
71	0xbdb955ef	-0.09049594
72	0x3de34dec	0.11098847
73	0x3d9c8490	0.07642472
74	0xbdc0a775	-0.0940694
75	0xbd8e5383	-0.06949522
76	0xbdf4ae26	-0.11947279
77	0x3d1ac855	0.037788708
78	0x3d8cbce2	0.06871964
79	0xbd418d82	-0.047254093
80	0x3e08baaa	0.13352457
81	0xbe7b4c1f	-0.24540757
82	0x3e41f644	0.18941599
83	0x3bc99b2f	0.0061525325
84	0xbe47f15e	-0.19525668
85	0x3ca4a4f7	0.020098193
86	0xbdfa78bc	-0.122300595
87	0xbcdf1c2b	-0.027235111
88	0x3d400f67	0.04688969
89	0xbe912731	-0.28350213
90	0xbe30fd60	-0.17284155
91	0x3e223b7d	0.15843005
92	0xbdf0dea9	-0.11761219
93	0xbe1a2b97	-0.1505569
94	0x3db8fda3	0.09032752
95	0xbdff22c4	-0.12457803
96	0xbe2b0d6f	-0.16704343
97	0x3de2e668	0.11079103
98	0xbe3f4619	-0.18679084
99	0xbd6c56f7	-0.057700124
100	0xbd2935fe	-0.041311257
101	0x3d285f06	0.041106246
102	0xbd8f033f	-0.06983041
103	0x3c3c204c	0.01148231
104	0xbd9f5cb7	-0.07781356
105	0x3df2da39	0.11858029
106	0x3d86e943	0.0658746
107	0xbd6e1050	-0.058121026
108	0x3c7cd311	0.0154311815
109	0x3d757a9f	0.059931394
110	0x3d003a93	0.03130586
111	0x3dc18f97	0.09451216
112	0x82bf3fe5	-2.8101601e-37
113	0x82c8d6a6	-2.951056e-37
114	0x82c046a2	-2.8252406e-37
115	0x82c417f0	-2.881335e-37
116	0x02b76de6	2.6952512e-37
117	0x82c2ccbc	-2.862325e-37
118	0x82c3f14e	-2.8791177e-37
119	0x82ce7ecb	-3.0341755e-37
120	0x02cc259b	2.999669e-37
121	0x82b7a9fa	-2.6986995e-37
122	0x82ce90ce	-3.0352093e-37
123	0x02cdfb37	3.0266233e-37
124	0x82c6ba2a	-2.9200338e-37
125	0x82ba1faf	-2.734843e-37
126	0x82c14976	-2.8400966e-37
127	0x82c4ef2d	-2.8936892e-37
128	0xbe3dd7c7	-0.18539344
129	0x3e165cb0	0.14683795
130	0x3c869c87	0.01643206
131	0x3b7dc788	0.0038723666
132	0x3d019875	0.031639535
133	0x3c07e9ff	0.008295535
134	0x02c4d415	2.892134e-37
135	0x3cc0ebea	0.023549993
136	0x3de80182	0.113284126
137	0xbd860449	-0.06543786
138	0x3d472d6a	0.048627295
139	0xb93b61d2	-0.0001787015
140	0xbe1028bf	-0.14078043
141	0x02b7db07	2.7015149e-37
142	0x3d528398	0.05139503
143	0x3dcf107e	0.101105675
144	0xbda5aa4d	-0.08089123
145	0xbd906b21	-0.07051683
146	0xbdb307ea	-0.08741744
147	0xbc88d7af	-0.016704408
148	0x3e303184	0.17206389
149	0x3cf9d1c2	0.030495528
150	0xbabdf695	-0.0014493043
151	0x3bf81bd4	0.0075716767
152	0xbdca5553	-0.098795556
153	0x3e2c0b39	0.16801156
154	0x3df616a8	0.1201604
155	0xbb9da4c5	-0.004810902
156	0xbd7ac5f3	-0.061223935
157	0xbdaff573	-0.085917376
158	0x3e22ac62	0.15886071
159	0x3ccb2c54	0.02480141
160	0xbe355420	-0.17707872
161	0xbe116124	-0.14197212
162	0xbe0f14f2	-0.13972834
163	0x3d36f2bb	0.04466508
164	0xbd7cc9fc	-0.061716065
165	0x3dbaded8	0.09124535
166	0xbd4a682a	-0.049415745
167	0xbd8a3233	-0.06747856
168	0xbe4b5d1e	-0.1985974
169	0x3e0c4e4a	0.1370174
170	0xbe6ebebc	-0.23314947
171	0xb888755a	-6.506844e-05
172	0xbe9af890	-0.30267763
173	0xbe5b3acc	-0.21409148
174	0xbdb6d014	-0.089264065
175	0xbdb38ba1	-0.087668665
176	0xbdda4abf	-0.10658788
177	0xbcfce6c0	-0.030871749
178	0xbdea5e9e	-0.11443828
179	0x393a18dc	0.00017747603
180	0xa741d3d4	-2.6898963e-15
181	0xbd7f106b	-0.062271517
182	0x3d17edf8	0.03709218
183	0xbe1e3b2f	-0.15452264
184	0xbe737ef8	-0.23778903
185	0x3d83d673	0.06437387
186	0x3dcfb810	0.10142529
187	0xbe281387	-0.16413699
188	0x3e0e8d84	0.13921171
189	0xbe75a6c7	-0.23989402
190	0x384428dd	4.67681e-05
191	0x3e318971	0.17337586
192	0x82c9cfd2	-2.9653579e-37
193	0x82c46d72	-2.886243e-37
194	0x82bfed12	-2.8201e-37
195	0x02c612c1	2.910425e-37
196	0x00e4ec60	2.1023288e-38
197	0x82c0f046	-2.8349775e-37
198	0x82cd7257	-3.018767e-37
199	0x82c28d6e	-2.8586915e-37
200	0x82cd4ea3	-3.0167178e-37
201	0x02b9cfcd	2.7302579e-37
202	0x82b80dc7	-2.7044278e-37
203	0x82b6a94e	-2.6839673e-37
204	0x82c52160	-2.8965705e-37
205	0x81f4ab91	-8.987763e-38
206	0x82b8ed98	-2.7172742e-37
207	0x82b61fcd	-2.676075e-37
208	0x3a2a9557	0.0006507239
209	0xbcb25f01	-0.021773817
210	0xbba02a3d	-0.0048878477
211	0xba1798b2	-0.0005782946
212	0xbbd1d407	-0.0064034495
213	0xbc2dcd26	-0.010607993
214	0x3bd96e7c	0.006635485
215	0xbc594016	-0.013259908
216	0x3c99d742	0.0187794
217	0xbcf0d899	-0.029400157
218	0x3c7b6ce5	0.015345787
219	0x3d54340e	0.051807456
220	0x3cd2cc28	0.025732115
221	0x3c7afbe9	0.015318849
222	0x3dc0e16c	0.09417996
223	0x3c2f3243	0.010693136
224	0x3e1dac20	0.15397692
225	0xbc4acb9a	-0.012377644
226	0x3dba67b2	0.091018096
227	0xbd136353	-0.035983395
228	0x3cee9446	0.029123437
229	0xbc44f33c	-0.012020882
230	0xbc8316ee	-0.016002145
231	0xbdeb694d	-0.11494694
232	0x3d633349	0.05546883
233	0xbd0308b5	-0.031990726
234	0xbe946015	-0.28979555
235	0xbe804b37	-0.25057384
236	0x3c986058	0.018600628
237	0xbda55e15	-0.08074585
238	0x3d7d2f09	0.061812434
239	0xbe6f1fcc	-0.23351973
240	0xbe3e369b	-0.18575518
241	0x3e3a884d	0.18216057
242	0xbd592c3f	-0.053020712
243	0x3e503f27	0.2033659
244	0xbdff5763	-0.124678396
245	0xbb959454	-0.004564801
246	0x3c3821b1	0.011238501
247	0x3e539c76	0.20665154
248	0xbe650ab2	-0.22367361
249	0x3d1f1e4f	0.038847264
250	0x3d86ad0c	0.06575975
251	0xbd69a649	-0.057043348
252	0x3d33a746	0.043860696
253	0x3da1cc1f	0.07900261
254	0xbe22eb55	-0.15910085
255	0x3e36f7c6	0.17867956

bias f4 [32]
0	0xbbd3915a	-0.0064565362
1	0xbc3934c2	-0.011304082
2	0xbe64ec27	-0.2235571
3	0xbe35dd03	-0.1776009
4	0xbe1894d5	-0.14900525
5	0x3d229ff5	0.03970333
6	0x3dabf4ef	0.08396327
7	0x973f4292	-6.179945e-25
8	0xbe8dc65a	-0.27690393
9	0xbd8383bb	-0.0642161
10	0x3ddf2117	0.10894983
11	0xbe4c05e7	-0.19924127
12	0x82bc2c9f	-2.7649728e-37
13	0xbd928175	-0.07153598
14	0xbd37703c	-0.04478477
15	0xbe0ff260	-0.14057302
16	0x3e37b657	0.17940651
17	0xbddc8d32	-0.10769118
18	0x3d7f1259	0.062273357
19	0xbb4b3681	-0.0031007829
20	0xbe59a41e	-0.21254012
21	0xbd983caf	-0.074334495
22	0x3df64d9c	0.120265216
23	0x9d63e8f0	-3.0163626e-21
24	0x82c7a184	-2.9333127e-37
25	0x3c705fbf	0.014671265
26	0xbd159362	-0.03651751
27	0x3e6c3ff0	0.23071265
28	0x3b935659	0.0044963774
29	0xbe8aed38	-0.2713411
30	0x3a975c1d	0.0011547838
31	0x3da2e803	0.07954409
